{"config": {"name": "sequential_2", "layers": [{"config": {"dilation_rate": [1], "padding": "same", "activation": "linear", "kernel_initializer": {"config": {"distribution": "uniform", "scale": 1.0, "mode": "fan_avg", "seed": null}, "class_name": "VarianceScaling"}, "batch_input_shape": [null, 64, 1], "name": "conv1d_7", "kernel_constraint": null, "trainable": false, "dtype": "float32", "activity_regularizer": null, "strides": [1], "bias_regularizer": null, "bias_initializer": {"config": {}, "class_name": "Zeros"}, "use_bias": true, "bias_constraint": null, "kernel_regularizer": null, "filters": 256, "data_format": "channels_last", "kernel_size": [5]}, "class_name": "Conv1D"}, {"config": {"center": true, "axis": -1, "beta_constraint": null, "moving_mean_initializer": {"config": {}, "class_name": "Zeros"}, "trainable": false, "scale": true, "momentum": 0.99, "gamma_constraint": null, "moving_variance_initializer": {"config": {}, "class_name": "Ones"}, "gamma_regularizer": null, "beta_regularizer": null, "name": "batch_normalization_5", "gamma_initializer": {"config": {}, "class_name": "Ones"}, "beta_initializer": {"config": {}, "class_name": "Zeros"}, "epsilon": 0.001}, "class_name": "BatchNormalization"}, {"config": {"name": "activation_8", "trainable": false, "activation": "relu"}, "class_name": "Activation"}, {"config": {"dilation_rate": [1], "padding": "same", "activation": "linear", "kernel_initializer": {"config": {"distribution": "uniform", "scale": 1.0, "mode": "fan_avg", "seed": null}, "class_name": "VarianceScaling"}, "activity_regularizer": null, "name": "conv1d_8", "kernel_constraint": null, "trainable": false, "use_bias": true, "bias_initializer": {"config": {}, "class_name": "Zeros"}, "strides": [1], "bias_regularizer": null, "bias_constraint": null, "kernel_regularizer": null, "filters": 128, "data_format": "channels_last", "kernel_size": [5]}, "class_name": "Conv1D"}, {"config": {"name": "activation_9", "trainable": false, "activation": "relu"}, "class_name": "Activation"}, {"config": {"name": "dropout_3", "noise_shape": null, "trainable": false, "seed": null, "rate": 0.1}, "class_name": "Dropout"}, {"config": {"center": true, "axis": -1, "beta_constraint": null, "moving_mean_initializer": {"config": {}, "class_name": "Zeros"}, "trainable": false, "scale": true, "momentum": 0.99, "gamma_constraint": null, "moving_variance_initializer": {"config": {}, "class_name": "Ones"}, "gamma_regularizer": null, "beta_regularizer": null, "name": "batch_normalization_6", "gamma_initializer": {"config": {}, "class_name": "Ones"}, "beta_initializer": {"config": {}, "class_name": "Zeros"}, "epsilon": 0.001}, "class_name": "BatchNormalization"}, {"config": {"padding": "valid", "strides": [8], "name": "max_pooling1d_2", "data_format": "channels_last", "trainable": false, "pool_size": [8]}, "class_name": "MaxPooling1D"}, {"config": {"dilation_rate": [1], "padding": "same", "activation": "linear", "kernel_initializer": {"config": {"distribution": "uniform", "scale": 1.0, "mode": "fan_avg", "seed": null}, "class_name": "VarianceScaling"}, "activity_regularizer": null, "name": "conv1d_9", "kernel_constraint": null, "trainable": false, "use_bias": true, "bias_initializer": {"config": {}, "class_name": "Zeros"}, "strides": [1], "bias_regularizer": null, "bias_constraint": null, "kernel_regularizer": null, "filters": 128, "data_format": "channels_last", "kernel_size": [5]}, "class_name": "Conv1D"}, {"config": {"name": "activation_10", "trainable": false, "activation": "relu"}, "class_name": "Activation"}, {"config": {"dilation_rate": [1], "padding": "same", "activation": "linear", "kernel_initializer": {"config": {"distribution": "uniform", "scale": 1.0, "mode": "fan_avg", "seed": null}, "class_name": "VarianceScaling"}, "activity_regularizer": null, "name": "conv1d_10", "kernel_constraint": null, "trainable": false, "use_bias": true, "bias_initializer": {"config": {}, "class_name": "Zeros"}, "strides": [1], "bias_regularizer": null, "bias_constraint": null, "kernel_regularizer": null, "filters": 128, "data_format": "channels_last", "kernel_size": [5]}, "class_name": "Conv1D"}, {"config": {"name": "activation_11", "trainable": false, "activation": "relu"}, "class_name": "Activation"}, {"config": {"dilation_rate": [1], "padding": "same", "activation": "linear", "kernel_initializer": {"config": {"distribution": "uniform", "scale": 1.0, "mode": "fan_avg", "seed": null}, "class_name": "VarianceScaling"}, "activity_regularizer": null, "name": "conv1d_11", "kernel_constraint": null, "trainable": false, "use_bias": true, "bias_initializer": {"config": {}, "class_name": "Zeros"}, "strides": [1], "bias_regularizer": null, "bias_constraint": null, "kernel_regularizer": null, "filters": 128, "data_format": "channels_last", "kernel_size": [5]}, "class_name": "Conv1D"}, {"config": {"center": true, "axis": -1, "beta_constraint": null, "moving_mean_initializer": {"config": {}, "class_name": "Zeros"}, "trainable": false, "scale": true, "momentum": 0.99, "gamma_constraint": null, "moving_variance_initializer": {"config": {}, "class_name": "Ones"}, "gamma_regularizer": null, "beta_regularizer": null, "name": "batch_normalization_7", "gamma_initializer": {"config": {}, "class_name": "Ones"}, "beta_initializer": {"config": {}, "class_name": "Zeros"}, "epsilon": 0.001}, "class_name": "BatchNormalization"}, {"config": {"name": "activation_12", "trainable": true, "activation": "relu"}, "class_name": "Activation"}, {"config": {"name": "dropout_4", "noise_shape": null, "trainable": true, "seed": null, "rate": 0.2}, "class_name": "Dropout"}, {"config": {"dilation_rate": [1], "padding": "same", "activation": "linear", "kernel_initializer": {"config": {"distribution": "uniform", "scale": 1.0, "mode": "fan_avg", "seed": null}, "class_name": "VarianceScaling"}, "activity_regularizer": null, "name": "conv1d_12", "kernel_constraint": null, "trainable": true, "use_bias": true, "bias_initializer": {"config": {}, "class_name": "Zeros"}, "strides": [1], "bias_regularizer": null, "bias_constraint": null, "kernel_regularizer": null, "filters": 128, "data_format": "channels_last", "kernel_size": [5]}, "class_name": "Conv1D"}, {"config": {"name": "activation_13", "trainable": true, "activation": "relu"}, "class_name": "Activation"}, {"config": {"name": "flatten_2", "trainable": true, "data_format": "channels_last"}, "class_name": "Flatten"}, {"config": {"use_bias": true, "bias_regularizer": null, "trainable": true, "activation": "linear", "kernel_initializer": {"config": {"distribution": "uniform", "scale": 1.0, "mode": "fan_avg", "seed": null}, "class_name": "VarianceScaling"}, "activity_regularizer": null, "name": "dense_2", "kernel_constraint": null, "bias_constraint": null, "units": 4, "bias_initializer": {"config": {}, "class_name": "Zeros"}, "kernel_regularizer": null}, "class_name": "Dense"}, {"config": {"center": true, "axis": -1, "beta_constraint": null, "moving_mean_initializer": {"config": {}, "class_name": "Zeros"}, "trainable": true, "scale": true, "momentum": 0.99, "gamma_constraint": null, "moving_variance_initializer": {"config": {}, "class_name": "Ones"}, "gamma_regularizer": null, "beta_regularizer": null, "name": "batch_normalization_8", "gamma_initializer": {"config": {}, "class_name": "Ones"}, "beta_initializer": {"config": {}, "class_name": "Zeros"}, "epsilon": 0.001}, "class_name": "BatchNormalization"}, {"config": {"name": "activation_14", "trainable": true, "activation": "softmax"}, "class_name": "Activation"}]}, "class_name": "Sequential", "keras_version": "2.2.4", "backend": "tensorflow"}